…
coder={\n    0: AddedToken(\"[UNK]\", rstrip=False, lstrip=False, single_word=False, normalized=False, special=True),\n    1: AddedToken(\"[PAD]\", rstrip=False, lstrip=False, single_word=False, normalized=False, special=True),\n    2: AddedToken(\"[CLS]\", rstrip=False, lstrip=False, single_word=False, normalized=False, special=True),\n    3: AddedToken(\"[SEP]\", rstrip=False, lstrip=False, single_word=False, normalized=False, special=True),\n}),\n  model = TextClassificationModel(\n  (text_embedder): TextEmbedder(\n    (label_attention_module): LabelAttentionClassifier(\n      (label_embeds): Embedding(311, 96)\n      (c_q): Linear(in_features=96, out_features=96, bias=False)\n      (c_k): Linear(in_features=96, out_features=96, bias=False)\n      (c_v): Linear(in_features=96, out_features=96, bias=False)\n      (c_proj): Linear(in_features=96, out_features=96, bias=False)\n    )\n    (embedding_layer): Embedding(5000, 96, padding_idx=1)\n    (transformer): ModuleDict(\n      (h): ModuleList(\n        (0): Block(\n          (attn): SelfAttentionLayer(\n            (c_q): Linear(in_features=96, out_features=96, bias=False)\n            (c_k): Linear(in_features=96, out_features=96, bias=False)\n            (c_v): Linear(in_features=96, out_features=96, bias=False)\n            (c_proj): Linear(in_features=96, out_features=96, bias=False)\n          )\n          (mlp): MLP(\n            (c_fc): Linear(in_features=96, out_features=384, bias=False)\n            (c_proj): Linear(in_features=384, out_features=96, bias=False)\n          )\n        )\n      )\n    )\n  )\n  (classification_head): ClassificationHead(\n    (net): Linear(in_features=96, out_features=1, bias=True)\n  )\n),\n  categorical_forward_type = None,\n  num_classes = 311,\n  embedding_dim = 96,\n)\n\n\n\nDefine a TrainingConfig and train on a small subsample so it completes quickly.\n\n\n\n\n\n\n\nNoteNote\n\n\n\nWe train on a small subsample (5% of the data, 1 epoch) just to verify the pipeline runs end-to-end. A model trained on the full dataset is loaded
…
